archive/chatbot/data.pth (torch, 7850 bytes, 6 tensors)

l1.weight f4 [8, 102]
00000000: 2c8a d43d 6cfb c2be 8ced ec3e e97a 9b3f
00000010: c5c6 c2bd 9099 fd3e 2811 8b3d 5321 923e
00000020: 2832 003e 249f d63e 37fd a93e a2a9 ab3e
00000030: 00cb 133f a752 03bd 8274 85be 106d 5cbe
00000040: 211e c53e 606d bd3e 0e8a d83e e528 cb3e
00000050: b08b de3e 3c7f 89bf de17 e2bd 1d3d 20bf
00000060: 8270 9abd 2d6b e7be 16fb 883e 6583 8f3e
00000070: 6697 9c3e c89f 4c3e eb98 853d 254c 5b3f
00000080: 4aaf a8be 69f5 bd3e 15ee 363f 8068 30be
00000090: 3dcc 303e 320d f63e e6e9 44be d092 05bf
000000a0: e23c 133f 3eee af3e 921e 3e3f 94f5 303f
000000b0: 4f7e 433f 9a4a 773e f06f 833a c93d 813e
000000c0: aa95 6fbe cfa9 273f 1555 3d3f a6ae c1be
000000d0: d2c1 b7be 01a6 d33e eafc bc3e 99f0 f83e
000000e0: eec7 33bd d59a 2b3f e00b e13e f3d9 f5be
000000f0: c0c3 7a3d a92d 323d bd4a 3dbf 5c64 bfbc
00000100: 91c6 a83e 3137 b33e 00dd bfbe 1ef6 473f
00000110: fdf8 5b3e c04f 57be e654 a03e 4554 2ebf
00000120: 08b4 373e 14d9 f13e 28f9 1a3f aa8d b73e
00000130: 4969 9cbc cd01 e83e 2761 973e 33f0 4b3a
00000140: cbfe 6f3e 047c fc3e 4917 463f 1c19 cdbe
00000150: 43cc ea3e 3635 b23e 8c8d c33e bebc 90be
00000160: adb2 7bbd 930f 9d3e 1bd5 2fbf 8424 303f
00000170: 130d 753e 2574 a53e 42e6 0f3f 3098 933e
00000180: 91b8 82be d902 4a3e 4f01 97be 8370 213f
00000190: ed3c 353e c196 ea3e 4226 8cbe 44eb 603e
000001a0: c6ca a0be 4d56 10bf 59e2 743e eb5c 98be
000001b0: f4bd 1abf 6cd0 973d d057 4cbe 8d09 fb3c
000001c0: 92f6 733e 4ef8 e9be ca71 98be b313 0f3f
000001d0: 4912 e73e ac19 1e3f 2dce ee3e ec94 b63c
000001e0: 4522 593e 288b 9f3e a44d c3bd df98 4dbe
000001f0: dee9 bd3e c3b6 803f a99c 10be 1ff8 bd3e
00000200: 8315 7c3e 5056 a43d b4b1 fdbd 5de1 953e
00000210: c95d 133e 3ae3 b2be 9349 b23e 2c5e b7be
00000220: 41d0 513f 4608 8a3e 7263 373e 7164 98be
00000230: 801f 323d 6d91 003e 4790 ecbe 03e2 55bc
00000240: d876 42bf a878 42bf 8047 36bf 2b12 d83e
00000250: 4b0e 1e3e c184 113d 5992 213b 0564 10ba
00000260: 740c 0dbe 1060 b73e 782c b83d 51f5 b93a
00000270: d999 cf3e 5f6b 98be 741e db3e fe9f 523f
00000280: ef98 c03c 4f8f febd be57 663e 906d 003f
00000290: 01bb de3e 6e66 833e cc9b ee3e 5018 8e3d
000002a0: 4855 f33d e0eb c0be 90d7 dd3e dcec fa3e
000002b0: 8253 df3e 010e c13e c98c 8fbe de9d 77bd
000002c0: 2e95 4c3f 452d f5bd 1047 213f 31f6 003e
000002d0: 8940 2d3f 6ee5 d83e 2085 b93d 0a67 ed3c
000002e0: f4af d0be 6891 563f d044 023f ea69 543d
000002f0: 6e4f 85be 58ab ea3e 52ef 393d 8c32 813d
00000300: 552c 13bf d014 36bf cd3d c53e 55a4 adbd
00000310: 59c5 ef3d 13b6 6abe 0a96 8a3e 90f6 823d
00000320: 5e93 013f 54ae 3f3f 663f 953d 4a15 43be
00000330: c622 c23e aebf df3e 329e 013f 2203 c2be
00000340: fa3a db3e 3d67 083f fd39 223f 248d 8dbe
00000350: 9736 38bc 987b 4a3e d152 b5be f082 f23e
00000360: 3b98 e73e 5d50 9cbd ab4a eabe 574b a13e
00000370: 16f5 9fbe 4931 5ebe fb35 123d f1c1 bc3e
00000380: cc2e 833e 7dcd 50bf bb9c 063f f90d 4a3f
00000390: 3131 943e 0a7d 063f 5d37 913d f9e3 8dbd
000003a0: 082e f43d d180 06be d222 b03e ff42 03bf
000003b0: cd31 80be 86e7 26be 78d1 143f 5755 bdbe
000003c0: 608d 9bbe eb80 f43e f1f4 1a3e 7e6d 673e
000003d0: 5856 273f e373 54be 683a 353f 8a53 4d3f
000003e0: f533 383f 6e1f a9be 4ee3 40be 1f5b 7c3e
000003f0: 2d8b 313f a497 1e3e 0141 b2be c6ba a13e
0.10377917 -0.38082445 0.46274984 1.2146884 -0.095105685 0.4953122 0.06790382 0.2854105
0.12519133 0.4191829 0.33201 0.33527857 0.5773163 -0.032061245 -0.2606545 -0.21525979
0.3849955 0.3699751 0.42292827 0.39679638 0.43465948 -1.0741954 -0.110397086 -0.6259325
-0.075409904 -0.45198956 0.26754063 0.28029934 0.30584258 0.19982827 0.065233074 0.8566306
-0.32946235 0.37101296 0.71457034 -0.17227364 0.1726541 0.48056942 -0.1922985 -0.52177143
0.57514775 0.34361452 0.74265397 0.6912472 0.76364607 0.24149552 0.0010027867 0.2524245
-0.23396936 0.6549348 0.7395795 -0.3782856 -0.3589006 0.41337588 0.36911708 0.4862106
-0.04389184 0.6703313 0.43954372 -0.48017845 0.061221838 0.043500576 -0.73942167 -0.023363285
0.32963994 0.35003045 -0.37473297 0.7810992 0.214817 -0.21026516 0.31314772 -0.68097335
0.1793977 0.4723593 0.6053643 0.3585027 -0.019093173 0.45313874 0.2956631 0.0007779628
0.2343704 0.49313366 0.7737928 -0.4005822 0.45858964 0.34806222 0.3819393 -0.28269
-0.061449695 0.30675945 -0.6868455 0.6880572 0.23930769 0.32315174 0.5621072 0.28827047
-0.25531438 0.19727649 -0.29493186 0.63062304 0.17699023 0.4581814 -0.27372938 0.21964747
-0.31404704 -0.56381685 0.2391447 -0.2975839 -0.60446095 0.074128 -0.19955373 0.030644203
0.23824528 -0.45697254 -0.29774314 0.55889434 0.45131138 0.6175792 0.46641675 0.022287808
0.21204479 0.31160855 -0.09536293 -0.20077847 0.3709249 1.0055774 -0.14122261 0.37103364
0.24617581 0.08024275 -0.1238741 0.292735 0.14391245 -0.34938985 0.34821758 -0.35814035
0.81958395 0.26959437 0.17909029 -0.2976413 0.043487072 0.12555476 -0.46203825 -0.013054374
-0.7596259 -0.75965357 -0.7120285 0.4220136 0.1543514 0.035526995 0.002465388 -0.0005508068
-0.13774282 0.35815477 0.08992857 0.001418749 0.40547064 -0.29769418 0.4279667 0.8227538
0.023510424 -0.12429678 0.22494408 0.5016718 0.43502048 0.25664085 0.4660324 0.06938231
0.118815005 -0.37679958 0.43328524 0.49008834 0.436184 0.37705997 -0.28037098 -0.06045329
0.7991513 -0.11971525 0.6299906 0.12593915 0.676766 0.4236254 0.09058595 0.028979797
-0.40759242 0.8381562 0.5088625 0.05185882 -0.26037163 0.4583385 0.04539425 0.06308469
-0.5748952 -0.7112551 0.38523713 -0.084786095 0.11707563 -0.22921018 0.27067596 0.06394684
0.5061549 0.7487538 0.07287483 -0.1905109 0.37917155 0.43700927 0.5063201 -0.37893015
0.42818433 0.5328253 0.63369733 -0.27646744 -0.011243484 0.1977371 -0.35414746 0.47365522
0.4523333 -0.076325156 -0.45760092 0.31502792 -0.31241673 -0.21698488 0.03569601 0.36866716
0.2562164 -0.8156355 0.525829 0.7892757 0.2894378 0.52534544 0.07090638 -0.06928248
0.11922842 -0.13135077 0.34401566 -0.512741 -0.25037995 -0.16299257 0.58132124 -0.36979172
-0.30381298 0.47754607 0.151325 0.22600362 0.65366125 -0.20747332 0.70792246 0.80205595
0.7195428 -0.3303179 -0.1883671 0.24644135 0.6935299 0.15487534 -0.3481522 0.3158781

l1.bias f4 [8]
00000000: a9e7 843f b27d 423f eedc 8d3f 00a1 063f
00000010: 55a4 943e 3df7 513f 7043 093f e426 043f
1.0383197 0.75973046 1.1083047 0.52589417 0.29031625 0.8201788 0.53618526 0.5162184

l2.weight f4 [8, 8]
00000000: 06d9 ad3f 09ac a83e 3b50 b9bf 226c b43f
00000010: 0291 b53f 72f7 3b3f 2acd 393f cb6e e03e
00000020: a84b 943f 9d53 3bbf 0513 973e 0ce0 dd3e
00000030: 6869 08bf f80a 19bf 95f8 8a3f 9f45 503f
00000040: 0716 213f b949 103e a639 363f e174 09be
00000050: 3e1b 33bf ab19 803f c32d 67bf f14d c03d
00000060: 3138 853d 9ede 9e3f 3a69 f7be 0d58 8abf
00000070: 7fe7 62bf 6418 813e ae5b 4e3f 86db a03f
00000080: 7e77 983f 1a12 8dbf 39a9 993f 2433 7d3f
00000090: 9826 64be 278d 2cbf f1a2 2a3f 535f a73e
000000a0: bdc8 1c3e ee7f 6e3f 7204 b13f 47f9 843f
000000b0: 0caf 71bf 6a5c 80bf 892c 2d3f 50c8 12bf
000000c0: c9f1 81bf 638a debe b98d 393f f288 663e
000000d0: d36b 6c3f 6e99 853f f112 313e c748 c13f
000000e0: ebec 2f3f 42cf 973f a592 9d3f c2ea f9be
000000f0: 43cc 21bf 3cec 953f 96d5 d2be 1e27 febe
1.3581855 0.32943752 -1.4477609 1.40955 1.4184878 0.73424447 0.7257868 0.43834528
1.1585588 -0.7317446 0.29506698 0.43334997 -0.5328584 -0.5978236 1.0857111 0.81356233
0.62924236 0.14090623 0.71181715 -0.13423492 -0.69963443 1.0007833 -0.903042 0.09389866
0.06504858 1.2411687 -0.4832247 -1.0808121 -0.88634485 0.2521392 0.8060864 1.2566993
1.1911466 -1.1021149 1.2004768 0.9890616 -0.22280347 -0.6740288 0.6665488 0.32689914
0.1531095 0.93163955 1.3829482 1.0388573 -0.94407725 -1.0028203 0.6764608 -0.573369
-1.0151912 -0.43464956 0.72481877 0.22513178 0.92352027 1.0437448 0.17292382 1.5100335
0.68720883 1.1860125 1.2310377 -0.48811918 -0.63202304 1.1712718 -0.41178578 -0.4963922

l2.bias f4 [8]
00000000: 046f f83e 2c19 e43e 3cd7 533f 2765 913d
00000010: 2630 933e 99d7 cf3e b17a 053f 10a3 4c3f
0.48522198 0.44550455 0.82750297 0.070993714 0.28747672 0.40594175 0.5214034 0.79936314

l3.weight f4 [13, 8]
00000000: 65fa c2bf fd0b adbf 0786 713f e63c 1abf
00000010: 534c bbbe 219a 783f 4dde 7cbe f084 4c3f
00000020: 6bf8 823d 9556 fd3e 320d 993e 8d76 c93e
00000030: b687 d53d 67a2 e2bf 5b97 abbe 5bc6 0cbf
00000040: 8e29 1dbf b010 903e 4b18 93bf 9350 433e
00000050: f392 1f3e 774f d63e 9338 eb3e aff3 4abf
00000060: b292 37be 7ae2 013e c409 9cbf fec7 4d3f
00000070: 8813 97bf d501 76bf 8ad3 033f 2d09 abbd
00000080: d8ca 8e3d 335d a73e e935 2fbf 53c4 86bf
00000090: 5766 113f 36de acbf 5a4b 073f 5071 71bf
000000a0: 1694 1f3f fdab b3bf 15a0 18bf c33f 14bf
000000b0: 6bb9 53bf 9b0a 7abf 3d40 323f 3622 92bf
000000c0: 2c9b a13e 179e d23e 78ab a6bf 6baa 08be
000000d0: e974 9e3e c866 b9bd 8c43 bcbe 6010 c3bf
000000e0: 058d bd3e c620 a7bf 3e99 943e fc73 bdbf
000000f0: e1f6 20be 2d70 c3bf 8a3c a73d 13a6 db3e
00000100: 6572 0cbf 3de4 f93e b958 0a3f a8df 86bf
00000110: 1356 d93e c6a9 8dbd 7865 873c 96ba b73e
00000120: 7229 73bf 6012 92bf c1fb 113f afed 153f
00000130: 4dca edbe fcd0 52bf e589 3a3f cae8 e53e
00000140: 80a4 ec3e 4d86 3bbf f330 323f e90d d4be
00000150: 07ed e1be c9c1 21bf 98a8 c8bf c486 163f
00000160: 2880 27be 8fa2 923e 6553 a5bf 4be8 b7bf
00000170: bf8f 153f 7e79 573f 8807 99bf 04eb 11be
00000180: 72b6 94be 7341 c23d 5c0c 50bf c940 0d3f
00000190: 0e38 e3be a0b5 f93e c8f8 82bf 69fe a93e
-1.5232664 -1.3519284 0.94345134 -0.60249174 -0.36581668 0.9711018 -0.24694176 0.79890347
0.06395038 0.4948012 0.2989288 0.3934826 0.104262754 -1.7705811 -0.33513913 -0.54990166
-0.6139153 0.28137732 -1.1491789 0.19073705 0.155834 0.41857502 0.459416 -0.7927808
-0.17927054 0.1268405 -1.219048 0.8038329 -1.1802835 -0.96096545 0.5149466 -0.083513595
0.06972283 0.32688293 -0.68441635 -1.0528663 0.56796783 -1.3505313 0.5284935 -0.94313526
0.62335336 -1.4036862 -0.59619266 -0.5790979 -0.827048 -0.9767243 0.6962927 -1.141669
0.315637 0.41136238 -1.3021078 -0.1334626 0.3094857 -0.09052807 -0.36770284 -1.5239372
0.37021652 -1.3056877 0.29023165 -1.4801021 -0.15719177 -1.5268608 0.08165844 0.42900142
-0.5486205 0.48806944 0.5404163 -1.0537004 0.42448482 -0.06917147 0.016527876 0.3588454
-0.94985116 -1.1411858 0.5702477 0.585658 -0.46443406 -0.82350135 0.7286666 0.44904166
0.46219254 -0.732518 0.6960594 -0.41416863 -0.4412615 -0.6318632 -1.5676451 0.58799386
-0.16357481 0.28639647 -1.2916075 -1.4367765 0.58422464 0.8416976 -1.1955423 -0.14249808
-0.29045445 0.0948514 -0.8126886 0.5517698 -0.44378704 0.4877138 -1.0232172 0.33201912

l3.bias f4 [13]
00000000: 20e9 863e a5c8 72be ea12 94be 2fd1 4d3c
00000010: 0c5e b2be bda2 093f 5a98 cebd e054 6bbd
00000020: 5eb5 abbd 1c9f 62b9 3864 6c3e efe1 cdbe
00000030: 8a7f 193e
0.26349735 -0.23709352 -0.2892068 0.01256208 -0.34837377 0.53763944 -0.100876525 -0.05745399
-0.083842024 -0.00021612312 0.23085105 -0.40211436 0.14990059
